tf_lite_model.tflite (tflite, 58728 bytes, 6 tensors)

sequential_2/dense_9/BiasAdd/ReadVariableOp f4 [10]
0	0x3e2dc148	0.16968262
1	0xbed61ad4	-0.41817343
2	0x3e260feb	0.1621701
3	0xbe2ecded	-0.17070742
4	0xbd942b0e	-0.072347745
5	0xbb078834	-0.0020680549
6	0xbe055f2e	-0.1302459
7	0x3ebee388	0.37282968
8	0x3d4cd772	0.050010152
9	0xbd70f79d	-0.058829892

sequential_2/dense_8/BiasAdd/ReadVariableOp f4 [64]
0	0x3de5462c	0.11195025
1	0x3c8a8689	0.016909854
2	0xbc714f0a	-0.014728317
3	0x3d2d967e	0.04237985
4	0xbd523043	-0.051315557
5	0x3e1067df	0.14102124
6	0xbda9196a	-0.082568005
7	0x3e7c2cfd	0.24626537
8	0x3e2d581b	0.16928141
9	0x3e245e1e	0.16051528
10	0x3df9d4d5	0.121987976
11	0xbceaddcd	-0.028670216
12	0x3e106f98	0.1410507
13	0x3df8224e	0.12115918
14	0xbd6a59dd	-0.057214607
15	0xbcd969eb	-0.026539763
16	0x3e34e6c9	0.17666163
17	0xbd1f132b	-0.03883664
18	0x3ca5b2d4	0.020226873
19	0xbc1ef854	-0.009702761
20	0x3b015516	0.0019734553
21	0x3e254a0b	0.16141526
22	0x3cafabb3	0.021444177
23	0x3e2a8aad	0.16654463
24	0xbe24903b	-0.16070645
25	0xbd2b0790	-0.04175526
26	0x3dfe21a0	0.12408757
27	0x3cbf6cab	0.023367247
28	0x3e486c7c	0.19572634
29	0xbdf60c50	-0.12014067
30	0x3e04fc0b	0.12986772
31	0x3db2676a	0.08711131
32	0x3d7a39cd	0.06109028
33	0x3e86ec69	0.26352242
34	0x3dc7acf3	0.09749784
35	0x3d9655db	0.073405944
36	0xbdde0ebe	-0.108426556
37	0x3e2addae	0.16686127
38	0x3e1448f4	0.14480954
39	0x3ce064fd	0.027391905
40	0x3dce35a5	0.10068826
41	0x3e27acc6	0.16374502
42	0x3dc809b4	0.09767476
43	0x3e85ee56	0.26158398
44	0x3d4bda2c	0.04976861
45	0x3da6e182	0.08148481
46	0x3e32a350	0.17445111
47	0x3e15ff65	0.14648207
48	0xb8b21444	-8.491476e-05
49	0x3e371d3b	0.17882244
50	0x3cac6941	0.021046283
51	0x3d318157	0.04333624
52	0x3e0dee04	0.13860327
53	0xbdaade00	-0.083431244
54	0x3d5daa50	0.0541175
55	0x3e972a0d	0.2952427
56	0x3e0a892c	0.1352889
57	0x3d96d69e	0.07365154
58	0xbda9cf95	-0.08291546
59	0x3e5e0454	0.21681339
60	0xbe3dd783	-0.18539242
61	0x3e422e70	0.18963027
62	0xbe1ef510	-0.15523171
63	0x3e06078c	0.13088816

sequential_2/dense_7/BiasAdd/ReadVariableOp f4 [128]
0	0xbdb09cbf	-0.08623647
1	0x3c3184aa	0.010834852
2	0x3d29ca5e	0.041452758
3	0xbcfa8295	-0.030579844
4	0x3d8117a0	0.06303334
5	0x3e3d03ae	0.18458435
6	0xbda29e87	-0.07940393
7	0xbd29d0ee	-0.041459017
8	0x3d49c6b5	0.049261767
9	0xbd8167a9	-0.063186
10	0xbdb08c80	-0.08620548
11	0x3c0a5c47	0.008444852
12	0x3de3461c	0.11097357
13	0xbd82364c	-0.063580126
14	0xbc82da56	-0.015973251
15	0xbccea3d7	-0.02522461
16	0x3d2c2888	0.04203084
17	0xbd27bb64	-0.040950194
18	0x3cad6b26	0.021169256
19	0xbd7bc6fb	-0.06146906
20	0x3d31012b	0.043214004
21	0x3da449e6	0.080219075
22	0x3d01c3a5	0.03168072
23	0x3ddf45a5	0.109019555
24	0xbdce2d77	-0.100672655
25	0xbbc84106	-0.006111267
26	0x3dcb45d5	0.09925429
27	0xbcf2cd15	-0.029638806
28	0x3d90d444	0.070717365
29	0x3b7cdbba	0.0038583116
30	0xbd50da75	-0.050989587
31	0x3bd835f5	0.006598229
32	0xbd1dc297	-0.038515653
33	0xbe01855e	-0.12648532
34	0xbdd9e30c	-0.10639009
35	0xbc63accf	-0.013896181
36	0xbd878fa4	-0.06619194
37	0xbdafd056	-0.08584659
38	0xbb3b7dee	-0.0028608995
39	0x3b7aff9f	0.0038299335
40	0xbde7e884	-0.11323646
41	0xbb844782	-0.0040368447
42	0xbdbac31f	-0.09119248
43	0x3d0c96c6	0.034323476
44	0xbd5ff6e1	-0.0546788
45	0xbc30c1b8	-0.010788374
46	0x3d18ebd6	0.037334286
47	0x3e0288a9	0.12747444
48	0xbd8bd299	-0.06827278
49	0xbdefa219	-0.117008395
50	0x3d6dd996	0.058068834
51	0xbdb44a65	-0.08803252
52	0xbbcd0c19	-0.0062575457
53	0x3d2a6918	0.04160413
54	0x3de1c287	0.11023431
55	0x3e0ce1b4	0.13757974
56	0xbd64157b	-0.055684548
57	0xbc8a9db6	-0.016920906
58	0xbc8827f4	-0.016620614
59	0x3d663fe4	0.056213275
60	0x3be31801	0.0069303517
61	0x3d75febd	0.06005739
62	0xbbb3cdb5	-0.0054871687
63	0xbd7150df	-0.058915015
64	0x3c75d5f2	0.015004622
65	0x3d7e85a1	0.062139157
66	0x3da8f980	0.08250713
67	0xbda28626	-0.07935743
68	0x3c9ec391	0.019380363
69	0xbe03b0fe	-0.12860486
70	0x3c0d7c78	0.008635633
71	0x3d7620bd	0.060089815
72	0xbbe220cd	-0.006900883
73	0xbc9dcf53	-0.019263899
74	0x3d80117b	0.06253334
75	0xbd4f51ad	-0.050615
76	0xbd96c6b1	-0.07362116
77	0x3da7711a	0.08175869
78	0xbd2a43cc	-0.041568562
79	0xbd3a172c	-0.045432255
80	0xbcc18aab	-0.023625692
81	0x3d867869	0.06565935
82	0xbd18b9dc	-0.037286624
83	0x3d70dbbc	0.058803305
84	0x3c9ff2e1	0.019524993
85	0xbc4d160c	-0.012517463
86	0xbca1a5a8	-0.019732311
87	0xbd2599da	-0.040429927
88	0x3bcd582e	0.0062666154
89	0xbd64adef	-0.05582994
90	0xbd15c717	-0.03656682
91	0xbcbc9ebb	-0.023024907
92	0xbdd07ffa	-0.101806596
93	0xbd8b9508	-0.06815535
94	0x3bb5cc29	0.0055480194
95	0xbc748d3f	-0.014926254
96	0xbd098129	-0.033570442
97	0xbddaa882	-0.106766716
98	0xbb1bc1b6	-0.0023766584
99	0xbe1cae18	-0.15300786
100	0xbddde1d3	-0.10834088
101	0xbd841ca2	-0.06450774
102	0x3bf0d2c6	0.007349345
103	0xbcef347e	-0.029199835
104	0xbccb636d	-0.024827683
105	0x3c92ba2f	0.017911045
106	0xbda2897d	-0.0793638
107	0xbe11a8ab	-0.14224498
108	0x3c9c8061	0.019104185
109	0xbc8832a3	-0.016625708
110	0xbbea7a1e	-0.007155671
111	0xbd8d2a67	-0.06892853
112	0x3d0a4bc1	0.03376365
113	0x3cd3d7ad	0.025859678
114	0x3d89f757	0.067366295
115	0x3e14c01c	0.14526409
116	0xbc4e85f6	-0.012605181
117	0x3d8927e6	0.06697063
118	0x3e1bab06	0.15201959
119	0x3c177a9a	0.009245539
120	0xbd15e040	-0.036590815
121	0x3ded7ec8	0.11596447
122	0xbb6828f0	-0.0035424791
123	0xbcb97489	-0.022638576
124	0xbc87caff	-0.016576288
125	0xbb21a005	-0.002466203
126	0xbcfc10f5	-0.030769804
127	0x3d727bf0	0.059200227

sequential_2/dense_7/MatMul f4 [128, 40]
0	0xbe4bb188	-0.19891942
1	0xbe03509f	-0.12823723
2	0xbe11299c	-0.14176029
3	0x3ed3d92d	0.4137663
4	0x3d28f889	0.041252647
5	0x3d702f78	0.05863902
6	0xbd6c5c8b	-0.057705443
7	0xbee5460a	-0.44779998
8	0xbe1f0404	-0.15528876
9	0xbeb38133	-0.3505951
10	0xbe246552	-0.16054276
11	0xbd55b73a	-0.05217669
12	0x3e110b01	0.14164354
13	0xbe386668	-0.18007815
14	0x3e821ba5	0.25411716
15	0x3d9795c5	0.07401613
16	0x3e768d88	0.24077427
17	0x3ebb208b	0.36548266
18	0x3d67bd2e	0.0565769
19	0x3f08ede3	0.53487986
20	0xbe0a439a	-0.1350235
21	0xbee418d5	-0.44550195
22	0x3cfd3b1c	0.030911975
23	0xbf5aabb0	-0.85418224
24	0xbe727044	-0.23675638
25	0xbe936421	-0.2878733
26	0x3eedefc3	0.46471986
27	0x3ee90059	0.45508078
28	0x3f3f4a64	0.74722886
29	0x3f37cebe	0.7179984
30	0x3f92547b	1.1432031
31	0xbf0f53ef	-0.5598745
32	0xbdf24fa7	-0.11831599
33	0x3ebd3a91	0.36958745
34	0x3e11a505	0.14223106
35	0xbf685b2e	-0.9076413
36	0x3f2f1b77	0.68401283
37	0xbe5e56b8	-0.21712768
38	0x3f8bb702	1.0915225
39	0xc002338a	-2.0343957
40	0x3da95436	0.08268015
41	0x3e871555	0.26383463
42	0x3f16990f	0.588273
43	0x3e5278b2	0.20553854
44	0xbed03548	-0.4066565
45	0x3ece648f	0.40311095
46	0xbe9b0dc4	-0.3028394
47	0xbf327a34	-0.6971772
48	0xbe0e0ffe	-0.13873288
49	0xbe2e4f35	-0.17022403
50	0x3ee23e4d	0.44188157
51	0x3d873f2a	0.066038445
52	0x3e542240	0.2071619
53	0xbf3d798b	-0.74013585
54	0x3cede5e9	0.029040294
55	0xbf3ddf89	-0.7416921
56	0x3e9be70c	0.30449712
57	0x3e2c75ff	0.16841887
58	0x3f3d1292	0.7385646
59	0xbf6dd7b2	-0.9290725
60	0xbc53b13e	-0.012920676
61	0xbf38ad2e	-0.7213925
62	0xbe0649e7	-0.13114129
63	0xbf307236	-0.6892427
64	0xbe94d9fe	-0.29072565
65	0x3de2149a	0.11039086
66	0x3f4e710e	0.8064126
67	0x3f839f99	1.028308
68	0xbdebf665	-0.115216054
69	0x3f8cb13b	1.0991586
70	0xbf89aad9	-1.0755264
71	0xbf543bd7	-0.8290381
72	0x3ed3a827	0.41339228
73	0x3f595d11	0.84907633
74	0x3f4800c9	0.781262
75	0xbea47dac	-0.3212713
76	0xbfc94040	-1.5722733
77	0xbef1fb1f	-0.47261903
78	0xbf6b4715	-0.9190534
79	0xbf0942ea	-0.5361773
80	0x3edfaef2	0.4368816
81	0x3ec8e7d1	0.39239362
82	0xbd1702e8	-0.036868006
83	0x3c2ee37b	0.010674353
84	0xbea586f4	-0.32329524
85	0x3ee0bf16	0.43895787
86	0x3ed61579	0.41813257
87	0xbf0b9bf1	-0.5453482
88	0x3f90f0c6	1.1323478
89	0xbec49179	-0.38392237
90	0x3eec0adb	0.46102032
91	0x3f02fd21	0.51167494
92	0xbd81922a	-0.06326707
93	0x3e54c3da	0.20777836
94	0xbd96b8fa	-0.073595
95	0x3f009502	0.5022737
96	0x3f79f973	0.97646254
97	0x3d947017	0.07247942
98	0xbdea1bad	-0.1143106
99	0x3db67050	0.08908141
100	0x3ebbbf76	0.3666951
101	0x3de3b096	0.111176655
102	0x3e829a3a	0.2550829
103	0x3f2c9f67	0.6743073
104	0xbde4e2eb	-0.11176094
105	0xbe57edea	-0.21086851
106	0x3f161503	0.5862581
107	0x3c3417c3	0.010991993
108	0x3f40f90e	0.7538003
109	0x3ed11263	0.4083434
110	0x3e4fdc5f	0.20298909
111	0x3f053a6a	0.5204226
112	0x3f93f95e	1.1560476
113	0x3d8242e5	0.06360415
114	0xbcc3661f	-0.023852406
115	0x3f422e6c	0.75852084
116	0xbed51144	-0.41614735
117	0x3ec7146e	0.38882774
118	0x3d0c6803	0.03427888
119	0x3f91001c	1.1328158
120	0xbdff1fef	-0.12457263
121	0xbdd66949	-0.104693
122	0xbe8706b6	-0.26372308
123	0xbebf2092	-0.37329537
124	0xbec4675a	-0.383601
125	0x3d34c2c2	0.044131048
126	0x3e360c76	0.17778191
127	0xbf09b09f	-0.5378513
128	0xbe06f0ff	-0.1317787
129	0xbe9f6b21	-0.3113642
130	0x3d95a217	0.07306307
131	0xbe83153a	-0.25602132
132	0x3eb4fe27	0.35350153
133	0x3f2deddb	0.67941064
134	0x3ed1d708	0.40984368
135	0x3e3edcff	0.18638991
136	0x3f0d1d10	0.5512247
137	0x3e81645d	0.25271884
138	0x3dfce16a	0.12347682
139	0x3ed8e60b	0.4236301
140	0xbe279ff1	-0.16369607
141	0xbfc20000	-1.515625
142	0xbe08571c	-0.1331448
143	0x3cbe8d6b	0.023260793
144	0x3e9f4015	0.31103578
145	0x3ddf9e46	0.1091886
146	0x3ef036ec	0.46916902
147	0x3f129054	0.5725148
148	0x3f61c536	0.88191545
149	0xbeba2ff4	-0.3636471
150	0xbefa1bb7	-0.4884927
151	0xbf87865b	-1.0587877
152	0x3e883a26	0.26606864
153	0xbeada123	-0.33912
154	0xbf775f83	-0.96630114
155	0xbf571a07	-0.8402409
156	0xbf7f5347	-0.99736446
157	0xc00b3403	-2.1750495
158	0xc014bcca	-2.3240228
159	0x3da864b2	0.08222331
160	0x3d9e4642	0.07728244
161	0xbd088f5f	-0.033339854
162	0x3e751e10	0.23937249
163	0x3e77b37a	0.24189559
164	0x3f4f914f	0.810811
165	0xbde682be	-0.11255406
166	0x3f001f36	0.50047624
167	0x3f3170ab	0.6931254
168	0x3ef6f884	0.48236477
169	0x3f027f2b	0.5097529
170	0x3f1e2d34	0.61787724
171	0xbed6de9a	-0.41966707
172	0x3f851f08	1.0400095
173	0x3f0b546a	0.5442568
174	0x3e9869fa	0.29768354
175	0x3e2df9b1	0.16989781
176	0x3dcaca89	0.09901912
177	0x3e54a690	0.20766664
178	0xbe58dbb0	-0.21177554
179	0x3ebcace8	0.36850667
180	0x3d1d85f2	0.03845782
181	0x3e6254f0	0.22102714
182	0xbf951c57	-1.1649274
183	0xbed7751e	-0.4208154
184	0x3d7b147a	0.061298825
185	0x3da79785	0.08183197
186	0xbd90deb8	-0.0707373
187	0xbde538eb	-0.11192497
188	0x3f2b06a4	0.6680701
189	0xbd700c5d	-0.05860554
190	0xbf933781	-1.1501313
191	0x3ee8afd6	0.45446652
192	0xbf93a51e	-1.1534765
193	0xbde8da12	-0.113697186
194	0x3fa46e98	1.284625
195	0xbe9aaf15	-0.30211702
196	0x3f3f63be	0.7476157
197	0xbde43d58	-0.11144513
198	0x3ed76268	0.42067266
199	0x3e5a2f6b	0.21307151
200	0x3f99bf4b	1.2011503
201	0x3d8be1d3	0.06830182
202	0x3b653235	0.0034972553
203	0x3cea7e55	0.028624693
204	0xbe8a558a	-0.27018386
205	0x3e88dece	0.26732486
206	0xbf15f774	-0.5858071
207	0x3e6e1d31	0.23253323
208	0x3da4bfd7	0.08044403
209	0xbe42f829	-0.19039978
210	0xbcc5c1c3	-0.024140244
211	0xbf13e9c2	-0.5777856
212	0x3f352516	0.70759714
213	0xbf106ced	-0.5641621
214	0x3e8fd74b	0.28093943
215	0xbea6129b	-0.3243607
216	0x3f87b94c	1.0603423
217	0xbe812884	-0.25226223
218	0x3f564de1	0.83712584
219	0xbe15dedb	-0.14635794
220	0x3f23cc8d	0.63983995
221	0xbdf96309	-0.121770926
222	0x3f0d2dcc	0.55148005
223	0x3e2d9dd8	0.16954744
224	0x3ed2395b	0.41059384
225	0xbf19fda4	-0.6015265
226	0x3dd8d317	0.10587137
227	0x3f6d22e8	0.9263139
228	0x3dd3e1b1	0.103457816
229	0x3ec54229	0.3852704
230	0x3d518147	0.05114868
231	0x3e887f3d	0.26659575
232	0x3d658e77	0.05604407
233	0x3e8992fe	0.2686996
234	0x3f4bcfc7	0.7961392
235	0x3f4fa94a	0.8111769
236	0x3f8c42a7	1.0957841
237	0x3d976075	0.073914446
238	0x3f40bb50	0.75285816
239	0xbf3643a3	-0.71196955
240	0xbd87d793	-0.066329144
241	0x3d133e3c	0.035948023
242	0xbe8aa07e	-0.2707557
243	0xbd8447ab	-0.06458982
244	0x3eb30070	0.3496127
245	0x3e0113f8	0.12605274
246	0x3f8829aa	1.0637715
247	0x3e817af8	0.2528913
248	0x3eb67449	0.35635594
249	0x3e8f3ec5	0.27977577
250	0xbe2c921c	-0.16852611
251	0xbe100393	-0.14063863
252	0x3e0e76b8	0.13912475
253	0xbf52363b	-0.82114
254	0xbee6ef1d	-0.45104304
255	0xbf14104d	-0.57837373

sequential_2/dense_8/MatMul f4 [64, 128]
0	0xbedd8240	-0.43263435
1	0xbdcb42d2	-0.09924854
2	0xbf08358a	-0.53206694
3	0xbec00013	-0.37500057
4	0xbf18071f	-0.59385866
5	0xbe345a2d	-0.17612524
6	0x3e90bc0e	0.28268474
7	0x3d4112dc	0.047137126
8	0xbf38291f	-0.71937746
9	0xbe854f6f	-0.26037166
10	0xbe0c7095	-0.13714822
11	0x3d474ecd	0.048659135
12	0xbf2cd91b	-0.67518777
13	0xbe9bbdb7	-0.30418178
14	0xbf33aa3d	-0.7018164
15	0x3f0625cc	0.52401423
16	0x3db4ac08	0.08821875
17	0x3d385e20	0.04501164
18	0x3e7e9c0f	0.24864219
19	0xbea817bc	-0.32830608
20	0xbf35b411	-0.70977885
21	0xbe033d49	-0.12816347
22	0x3f1f7170	0.62282467
23	0xbe12760e	-0.14302847
24	0xbc93510e	-0.017982986
25	0xbf022cb4	-0.5084946
26	0x3f5e6aca	0.868817
27	0x3f39cf82	0.72582257
28	0x3f85b9aa	1.0447285
29	0x3eeb68de	0.45978445
30	0x3e11e356	0.14246878
31	0x3f5f040b	0.87115544
32	0xbf551298	-0.83231497
33	0xbe6f53c5	-0.233718
34	0x36fee780	7.59674e-06
35	0x3e7c5036	0.24639973
36	0x3f3b498c	0.731591
37	0x3e9675ad	0.29386654
38	0x3b104f02	0.0022019749
39	0xbdd6dcb3	-0.10491314
40	0xbd9c923e	-0.07645081
41	0xbd8dfec1	-0.06933356
42	0xbf6a9ce3	-0.9164564
43	0x3f12bdd0	0.5732088
44	0xbe172768	-0.14761126
45	0x3f013665	0.50473624
46	0xbf33175e	-0.6995753
47	0xbe9d37b8	-0.30706573
48	0x3d90b5fe	0.07065962
49	0xbebe8a42	-0.37214857
50	0x3e6bf493	0.23042516
51	0xbe8f2e38	-0.2796495
52	0xbd502827	-0.050819542
53	0xbf387c65	-0.7206481
54	0xbcf0fd04	-0.029417522
55	0xbf4cb14f	-0.7995805
56	0xbd9b1299	-0.075719066
57	0x3d8b20ef	0.06793391
58	0xbe14c0e2	-0.14526704
59	0xbc66b914	-0.014082212
60	0x3d01ef85	0.031722564
61	0x3c79d908	0.015249498
62	0x3e3178b7	0.17331205
63	0x3ebfba67	0.374469
64	0x3e9051d5	0.28187433
65	0x3e8c4f40	0.27404213
66	0x3e611078	0.21978939
67	0xbc137fcb	-0.009002636
68	0xbd762f2e	-0.060103588
69	0x3eddfa7b	0.43355164
70	0x3e6236ee	0.22091267
71	0xbf2aaf93	-0.66674155
72	0xbe3efecb	-0.18651883
73	0x3ea73b9d	0.3266267
74	0xbf91656a	-1.1359074
75	0x3e068eb9	0.13140382
76	0x3df84bfd	0.121238686
77	0x3eda9b24	0.42696488
78	0x3f264876	0.64954317
79	0x3d953d70	0.07287109
80	0x3e081634	0.1328972
81	0x3de8f56c	0.113749355
82	0xbc17b4f5	-0.009259452
83	0x3f3a3d0d	0.72749406
84	0xbc8bc3b9	-0.017061101
85	0xbdefaafa	-0.11702533
86	0x3f42f03f	0.76147836
87	0xbe890a30	-0.26765585
88	0xbf1604c3	-0.58601016
89	0xbe968259	-0.29396322
90	0x3eaf52b5	0.34242788
91	0xbf0badcd	-0.54562074
92	0x3ea88eb1	0.32921365
93	0x3b84d11b	0.0040532476
94	0xbe8c3856	-0.2738673
95	0xbe1f8733	-0.15578918
96	0xbe74bf06	-0.23900995
97	0xbd45c24c	-0.048281
98	0x3f3ffe47	0.7499737
99	0xbf7e9466	-0.9944519
100	0xbdf82fe2	-0.12118508
101	0x3e31eca6	0.1737543
102	0xbdd41ed2	-0.10357441
103	0xbdcc101a	-0.09964009
104	0xbf7bc8f8	-0.9835353
105	0xbf6dcf7a	-0.9289471
106	0xbea42f23	-0.32067212
107	0xbc23709f	-0.009975581
108	0x3df70e52	0.12063278
109	0xbca76be7	-0.020437194
110	0x3e1efad3	0.1552537
111	0xbf23a45d	-0.63922673
112	0x3ec66408	0.38748193
113	0xbc0a1bf3	-0.008429515
114	0x3f7ba81b	0.98303384
115	0xbe02e2f3	-0.12781887
116	0xbf343b54	-0.7040303
117	0xbe82fa13	-0.25581416
118	0x3f0c44d7	0.5479254
119	0xbfb591cf	-1.4185122
120	0xbf3896e8	-0.72105265
121	0x3d5e5864	0.054283515
122	0xbfa12a04	-1.2590947
123	0xbf32f630	-0.699069
124	0x3eb6b90f	0.35688064
125	0x3e7578a4	0.23971802
126	0x3e88fc64	0.2675506
127	0x3f52a77b	0.82286805
128	0xbd7b41a6	-0.061341904
129	0xbfa35258	-1.2759504
130	0x3f062c21	0.52411085
131	0xbe9362bf	-0.28786275
132	0x3e8de52f	0.27713916
133	0x3e73639c	0.23768467
134	0x3d29769f	0.04137289
135	0x3dd55552	0.10416664
136	0xbc20c9a5	-0.009813701
137	0xbf201a4c	-0.62540126
138	0xbd389f03	-0.04507352
139	0xbf1bc7b5	-0.60851604
140	0x3d75f85f	0.06005132
141	0x3f028706	0.5098728
142	0x3f49ed6f	0.7887792
143	0x3ef93ae9	0.48677757
144	0x3cc96ae4	0.024587102
145	0xbd132ff3	-0.0359344
146	0x3e9f026d	0.31056538
147	0x3e3b1adf	0.1827197
148	0xbda9fb87	-0.08299928
149	0x3e74402d	0.23852606
150	0x3c0f59a2	0.0087493975
151	0x3f0fc7e8	0.5616441
152	0xbf460c17	-0.773622
153	0x3d7309bd	0.05933546
154	0x3b94c0bf	0.0045395787
155	0x3e9c80ca	0.30567008
156	0xbec2199c	-0.37910163
157	0x3e5ec6e3	0.21755557
158	0xbdfe26c2	-0.12409736
159	0x3f3e96c9	0.7444883
160	0xbe80c13e	-0.25147432
161	0xbda74a71	-0.081684954
162	0xbe1c2f09	-0.15252317
163	0x3f9f9243	1.246651
164	0x3eb2c12f	0.34913012
165	0x3e75f951	0.24020888
166	0x3e7ee419	0.248917
167	0xbe126971	-0.14298035
168	0x3f01a80f	0.5064706
169	0xbe88ef3e	-0.26745027
170	0x3e0744e8	0.1320988
171	0xbf1ede55	-0.62058
172	0xbef62244	-0.48073018
173	0x3e6a6363	0.22889476
174	0xbedfb45f	-0.436923
175	0x3f3f1be9	0.7465196
176	0xbd99fe90	-0.07519257
177	0x3dae97ca	0.08525045
178	0x3eef6e42	0.46763808
179	0xbb73f030	-0.003722202
180	0xbf2fb29b	-0.68631905
181	0xbe86c8d0	-0.26325083
182	0x3dedd82f	0.116134994
183	0x3e49da52	0.19712189
184	0xbea593f9	-0.32339457
185	0xbbcabed9	-0.0061873016
186	0xbcf381a7	-0.029724909
187	0x3e74463d	0.23854919
188	0x3e4477ad	0.19186278
189	0x3cac5cfb	0.02104043
190	0x3e3672ba	0.17817202
191	0x3e83589c	0.2565354
192	0x3ef57716	0.47942418
193	0xbc96143e	-0.0183202
194	0x3f0414f7	0.5159449
195	0x3dad7808	0.0847016
196	0xbbb52673	-0.005528265
197	0x3eaf48d8	0.34235263
198	0xbe33eb8f	-0.17570327
199	0x3ed02568	0.4065354
200	0xbed1e1f3	-0.40992698
201	0x3d9b8315	0.07593361
202	0xbfa891a0	-1.3169441
203	0x3d762445	0.060093183
204	0xbe9c321a	-0.30506974
205	0xbdc1ab21	-0.094564684
206	0x3e7a4084	0.24438673
207	0x3e226c4a	0.15861621
208	0x3e369f2a	0.17834154
209	0x3e6a81f7	0.2290114
210	0xbe1375f7	-0.14400469
211	0x3ea9c8b2	0.3316093
212	0xbe971570	-0.29508543
213	0xbd2362e5	-0.039889235
214	0xbf064683	-0.5245134
215	0xbf5c01d4	-0.8594029
216	0xbe63ffc1	-0.22265531
217	0x3da1de1b	0.079036914
218	0xbf480b4a	-0.78142226
219	0x3cacd92c	0.02109965
220	0x3e5224a0	0.20521784
221	0x3e8912ec	0.2677225
222	0xbe2d49c8	-0.16922677
223	0xbd4ea27f	-0.050447937
224	0x3ee19d68	0.44065404
225	0xbe158960	-0.14603186
226	0x3e1cf1fe	0.15326688
227	0x3db7d28c	0.089757055
228	0xbce7c3c1	-0.028291585
229	0x3d22c982	0.039742954
230	0x3cd5707d	0.026054615
231	0x3e9f9f16	0.3117606
232	0x3e8f46f7	0.2798383
233	0x3de2232a	0.11041863
234	0x3a788da0	0.0009481553
235	0x3dac6b90	0.084189534
236	0xbd16204e	-0.036651902
237	0xbdc2b2c2	-0.095067516
238	0xbe1bd1f9	-0.15216817
239	0xbf41faf9	-0.7577358
240	0x3edacd1e	0.42734617
241	0xbe6dc01b	-0.23217814
242	0x3f778ffb	0.9670407
243	0x3f3cf3db	0.73809594
244	0xbec4bda8	-0.38425946
245	0xbe2f0fd7	-0.17095886
246	0x3fdf680e	1.745363
247	0xbe3a8ced	-0.18217821
248	0xbeb320d1	-0.34985974
249	0xbe8b08de	-0.27155203
250	0x3de9fdd1	0.11425365
251	0xbea59dd7	-0.32346985
252	0x3dc287af	0.09498536
253	0xbe573387	-0.2101575
254	0xbe4b8e4a	-0.19878498
255	0x3f2f48b0	0.6847029

sequential_2/dense_9/MatMul f4 [10, 64]
0	0x3f1f1453	0.6214039
1	0x3f145652	0.57944214
2	0xbf7cde33	-0.9877655
3	0x3f06b7a4	0.52623963
4	0xbff65f35	-1.9247805
5	0xc03ed3e2	-2.9816823
6	0xbffed8f8	-1.9909964
7	0x3d3751cc	0.044755742
8	0x3d9a07be	0.07521008
9	0x3e63687e	0.2220783
10	0xbfc4fbc9	-1.5389339
11	0xbf9437e9	-1.1579562
12	0xc016d009	-2.3564475
13	0xc059c29e	-3.4025035
14	0x3f6dfa6d	0.92960244
15	0x3fbfdf19	1.4989959
16	0x3e713f25	0.23559244
17	0x3fb69f19	1.4267303
18	0x3f027315	0.5095685
19	0xc0340067	-2.8125246
20	0xbf43a442	-0.7642251
21	0x3ed3abff	0.4134216
22	0x3f853eab	1.040975
23	0x3f35b700	0.7098236
24	0xbeccc44b	-0.3999351
25	0x3ed8a640	0.4231434
26	0xbe0bab7f	-0.1363964
27	0xbf827abb	-1.0193704
28	0x3f4e58ef	0.8060445
29	0xbfb158a4	-1.3855176
30	0xbfcc56cd	-1.596399
31	0xbf9ac27c	-1.2090602
32	0x3e7153b4	0.23567086
33	0x3f0f8424	0.56061006
34	0x3e84f1f1	0.25965837
35	0x3d227f6d	0.039672304
36	0xc02f59f6	-2.7398658
37	0x3f7c4a7b	0.9855115
38	0x3f69236c	0.91069674
39	0xbf848c5a	-1.0355332
40	0x3f8c8e1f	1.0980872
41	0x3efde988	0.49592233
42	0x3f17c831	0.5928984
43	0x3f39fe82	0.72653973
44	0x3e261829	0.16220154
45	0x3f3d5c5c	0.73969054
46	0x3f49f864	0.7889464
47	0xc046e488	-3.1076984
48	0xbd91dcbc	-0.0712218
49	0x3f835f46	1.026345
50	0xbfeab086	-1.8335121
51	0xbf6208b6	-0.8829454
52	0x3f229bab	0.6351878
53	0xbcfc6075	-0.030807713
54	0xbfff20ce	-1.9931886
55	0xbd24432d	-0.040103126
56	0xc024f061	-2.5771716
57	0xc02c669a	-2.6937623
58	0x3eb907f8	0.36138892
59	0xc02be282	-2.6857
60	0x3ed910da	0.4239567
61	0x3f156243	0.5835306
62	0xbf55fe91	-0.8359156
63	0x3eceb84f	0.4037499
64	0xbf88ff71	-1.0702955
65	0x3f3c17ff	0.73474115
66	0x3a9370b2	0.0011248796
67	0xbff1ca1f	-1.8889807
68	0x3f65432e	0.89555633
69	0x3f1dd20c	0.6164863
70	0xbe96c38e	-0.2944607
71	0xbfa9bd81	-1.3260957
72	0x3ea8df69	0.32982948
73	0xbfb20205	-1.3906866
74	0x3f704dfb	0.9386899
75	0xbfa56975	-1.2922808
76	0x3e24f992	0.16110829
77	0x3f707051	0.9392138
78	0xbfbfe975	-1.499312
79	0x3f735013	0.9504406
80	0xbf6d3803	-0.9266359
81	0xbdd4987f	-0.10380649
82	0x3d322cdb	0.04349981
83	0xbc878c13	-0.016546285
84	0xbfe73b48	-1.8064966
85	0xbe6c4195	-0.23071893
86	0x3e379707	0.17928706
87	0xbf547bd6	-0.8300146
88	0x3e9d97ea	0.30779964
89	0x3e192e8a	0.1495916
90	0x3e8a8afb	0.2705916
91	0xbfc9a7b4	-1.5754304
92	0xbe93e426	-0.28885
93	0x3f008f02	0.5021821
94	0xbff58a6e	-1.918287
95	0x3f1b85c8	0.6075101
96	0xbfea43e4	-1.8301969
97	0xc00b7d52	-2.179524
98	0xbf2e6f6a	-0.68138754
99	0x3e1b7640	0.15181828
100	0xbfd4d47c	-1.6627345
101	0x3d2fb185	0.042893905
102	0x3e5b5097	0.21417461
103	0x3f984c6b	1.1898321
104	0xbf8346de	-1.0256002
105	0xc0043a3f	-2.066055
106	0xbfdb1600	-1.7116089
107	0xbfde12fd	-1.7349545
108	0xbf216a54	-0.6305287
109	0xbe08e836	-0.13369831
110	0xbf08abfa	-0.53387415
111	0xbe1bb4b6	-0.15205655
112	0xbfa0deb6	-1.2567966
113	0x3f0d0b62	0.55095494
114	0xbf2a87ae	-0.6661328
115	0xbd098c1e	-0.03358089
116	0x3f467bc6	0.77532613
117	0xbdf2eb39	-0.118612714
118	0x3ead5ac2	0.33858305
119	0x3f660161	0.89845854
120	0xbe8fe7ff	-0.28106686
121	0x3eff63f1	0.49880937
122	0xbfa424c5	-1.2823721
123	0x3f264b6f	0.6495885
124	0x3f2251d5	0.63406116
125	0x3f129e5b	0.5727288
126	0x3f5210a2	0.8205663
127	0xbe89940a	-0.26870757
128	0xbf62ad7e	-0.8854598
129	0x3e215cec	0.15758103
130	0xbf99e3cc	-1.2022643
131	0xbf1520e4	-0.5825331
132	0xbfea9b8a	-1.8328717
133	0x3e98c902	0.29840857
134	0xbfa1ef99	-1.2651244
135	0x3f644865	0.89172965
136	0x3d7fa5cf	0.062413987
137	0x3f08bc24	0.5341208
138	0xbfd5fed4	-1.6718392
139	0x3f6323b4	0.88726354
140	0x3ea0839c	0.3135041
141	0x3e19e1cc	0.15027541
142	0xbf2b7c6c	-0.6698673
143	0xbfcb85a8	-1.5900164
144	0x3dc54b86	0.096335456
145	0xbf96450b	-1.173982
146	0x3f18d02c	0.59692645
147	0x3ed847c3	0.4224225
148	0x3ed8c2a3	0.42335996
149	0x3ec7a079	0.38989618
150	0xbf922420	-1.1417274
151	0x3f03ebb4	0.5153153
152	0x3e9bd048	0.30432343
153	0xbfcfef6a	-1.6244938
154	0x3ec5d0ac	0.38635767
155	0x3f3a5e51	0.72800165
156	0xbf42fb06	-0.7616428
157	0x3ef84816	0.48492497
158	0x3eeb80fc	0.45996845
159	0x3f21375f	0.62975115
160	0x3e53545a	0.20637646
161	0x3f7c8288	0.98636675
162	0x3e563c91	0.20921542
163	0x3eba075e	0.36333746
164	0xbf32b1b5	-0.6980241
165	0x3ea9481c	0.33062828
166	0xbff8d773	-1.944075
167	0xbf870539	-1.0548469
168	0xbf227079	-0.6345287
169	0x3f441588	0.76595354
170	0x3eafe7e9	0.3435662
171	0xbdf77309	-0.12082488
172	0x3f538721	0.82628065
173	0xbfbb0be9	-1.461301
174	0x3e15e9e4	0.14640003
175	0x3e2c013e	0.16797349
176	0xbf924f08	-1.1430368
177	0xbd494cd1	-0.049145523
178	0x3e8a0214	0.2695471
179	0xbf84771b	-1.0348848
180	0x3e828929	0.2549527
181	0xbe290008	-0.16503918
182	0xbfc76990	-1.557909
183	0x3ec90a71	0.3926578
184	0x3e82afbd	0.25524703
185	0xbfd5a657	-1.6691388
186	0xbec41af8	-0.38301826
187	0x3f219a8e	0.63126457
188	0xbf240a5a	-0.64078295
189	0x3e40b17b	0.18817703
190	0xbf01e4b8	-0.5073962
191	0xbe4426d6	-0.1915544
192	0xbfa06785	-1.2531592
193	0xbd59d34c	-0.053180024
194	0xbee1bbc8	-0.44088578
195	0xbf3e3585	-0.74300414
196	0xbefa5a6e	-0.48897117
197	0x3e1f30e6	0.15545997
198	0x3eb196d5	0.34685388
199	0x3ea8585c	0.32879913
200	0xbe006fd8	-0.12542665
201	0xbf8ea22b	-1.114324
202	0x3e8f239e	0.2795686
203	0xbe86b817	-0.26312324
204	0xc005ec78	-2.092558
205	0xbebccd59	-0.36875418
206	0xbf4a109e	-0.78931606
207	0xbec62759	-0.38701895
208	0x3f4bb677	0.79575294
209	0xbf64958e	-0.892907
210	0x3aff55f5	0.0019480573
211	0x3f0fafc7	0.5612759
212	0xbe024b42	-0.12724021
213	0x3e46d1b5	0.19415934
214	0x3df00df7	0.117214136
215	0xbea3b47f	-0.31973645
216	0x3efb664a	0.49101478
217	0x3f0572df	0.52128404
218	0xbf8b884f	-1.0900973
219	0x3f658928	0.8966241
220	0x3ee7c3f2	0.45266682
221	0x3ec3662b	0.38163885
222	0x3e29a974	0.16568547
223	0x3ec783cd	0.38967744
224	0x3e848607	0.25883505
225	0xbf58527a	-0.8450085
226	0x3eb465a0	0.35233784
227	0x3e5ccb29	0.21561874
228	0xbf453e2c	-0.7704799
229	0xbedb6f70	-0.42858458
230	0xbfc46888	-1.53444
231	0x3e499824	0.19686943
232	0x3f444fe2	0.7668439
233	0xbf1d611b	-0.61476296
234	0xbddd3df8	-0.10802835
235	0xbfdc036f	-1.7188548
236	0x3ef23fd7	0.4731433
237	0x3f3a1c84	0.7269976
238	0xbf3004a9	-0.6875711
239	0x3efd50fa	0.49475843
240	0x3efa0dfa	0.48838788
241	0x3eeb49b2	0.45954663
242	0x3ef9f11e	0.4881677
243	0x3ece2562	0.40262896
244	0xbd8082d6	-0.06274955
245	0xbc2ba689	-0.010476717
246	0x3ec2582c	0.37957895
247	0xbf5a6944	-0.8531687
248	0x3eab0d6b	0.33408675
249	0x3e93be8f	0.28856322
250	0x3e9f3d3b	0.31101403
251	0x3e4c7423	0.19966178
252	0x3f161fdd	0.5864237
253	0xbf84901e	-1.0356481
254	0xbf3f3fe5	-0.7470687
255	0xbfe9978c	-1.8249373
